…
f `y`. Apparently this cat is of category Main Coon. Until a week ago, I was not at all familiar that there's a cat called a Maine Coon. Having spent all week with this particular cat, I am now deeply familiar with this Maine Coon.\n\n```python\nlearn.summary()\n```\n\n```\nInput Size override by Learner.data.train_dl\nInput Size passed in: 16 \n\n================================================================================\nLayer (type)               Output Shape         Param #   \n================================================================================\nConv2d                    [16, 64, 176, 176]   9408                \n________________________________________________________________________________\nBatchNorm2d               [16, 64, 176, 176]   128                 \n________________________________________________________________________________\nReLU                      [16, 64, 176, 176]   0                   \n________________________________________________________________________________\nMaxPool2d                 [16, 64, 88, 88]     0                   \n________________________________________________________________________________\nConv2d                    [16, 64, 88, 88]     36864               \n________________________________________________________________________________\nBatchNorm2d               [16, 64, 88, 88]     128                 \n________________________________________________________________________________\nReLU                      [16, 64, 88, 88]     0                   \n________________________________________________________________________________\n...\n```\n\nIf we go `learn.summary()`, remember that our input we asked for was 352 by 352 pixels, generally speaking, the very first convolution tends to have a stride 2. So after the first layer, it's 176 by 176.  `learn.summary()` will print out for you the output shape up to every layer. \n\
…
return that into a learner by passing in the data and the model and the loss function and optionally some metrics. We're going to use cross-entropy as usual. We can then call `learn.summary()` and confirm.\n\n```python\nlearn = Learner(data, model, loss_func = nn.CrossEntropyLoss(), metrics=accuracy)\n```\n\n```python\nlearn.summary()\n```\n\n```\n================================================================================\nLayer (type)               Output Shape         Param #   \n================================================================================\nConv2d                    [128, 8, 14, 14]     80                  \n________________________________________________________________________________\nBatchNorm2d               [128, 8, 14, 14]     16                  \n________________________________________________________________________________\nReLU                      [128, 8, 14, 14]     0                   \n________________________________________________________________________________\nConv2d                    [128, 16, 7, 7]      1168                \n________________________________________________________________________________\nBatchNorm2d               [128, 16, 7, 7]      32                  \n________________________________________________________________________________\nReLU                      [128, 16, 7, 7]      0                   \n________________________________________________________________________________\nConv2d                    [128, 32, 4, 4]      4640                \n________________________________________________________________________________\nBatchNorm2d               [128, 32, 4, 4]      64                  \n________________________________________________________________________________\nReLU                      [128, 32, 4, 4]      0                   \n________________________________________________________________________________\nConv2d                    [128, 16, 2, 2]      4624                \n________________________________________________________________________________\nBatchNorm2d               [128, 16, 2, 2]      32                  \n________________________________________________________________________________\nReLU                      [128, 16, 2, 2]      0                   \n________________________________________________________________________________\nConv2d                    [128, 10, 1, 1]      1450                \n________________________________________________________________________________\nBatchNorm2d               [128, 10, 1, 1]      20                  \n________________________________________________________________________________\nLambda                    [128, 10]            0                   \n________________________________________________________________________________\nTotal params:  12126\n```\n\nAfter that first conv, we're down to 14 by 14 and after the second conv 7 by 7, 4 by 4, 2 by 2, 1 by 1. The `flatten` comes out (calling it a `Lambda`), that as you can see it gets rid of the 1 by 1 and it's now just a length 10 vector for each item in the batch so 12
…
re down to 28 by 28 with 1024 channels.\n\nSo that's what the U-Net's downsampling path (the left half is called the downsampling path) look like. Ours is just a ResNet 34. So you can see it here `learn.summary()`, this is literally a ResNet 34. So you can see that the size keeps halving, channels keep going up and so forth.\n\n```python\nlearn.summary()\n```\n\n```\n======================================================================\nLayer (type)         Output Shape         Param #    Trainable \n======================================================================\nConv2d               [8, 64, 180, 240]    9408       False     \n______________________________________________________________________\nBatchNorm2d          [8, 64, 180, 240]    128        True      \n______________________________________________________________________\nReLU                 [8, 64, 180, 240]    0          False     \n______________________________________________________________________\nMaxPool2d            [8, 64, 90, 120]     0          False     \n______________________________________________________________________\nConv2d               [8, 64, 90, 120]     36864      False     \n______________________________________________________________________\nBatchNorm2d          [8, 64, 90, 120]     128        True      \n______________________________________________________________________\nReLU                 [8, 64, 90, 120]     0          False     \n______________________________________________________________________\nConv2d               [8, 64, 90, 120]     36864      False     \n______________________________________________________________________\nBatchNorm2d          [8, 64, 90, 120]     128        True      \n______________________________________________________________________\nConv2d               [8, 64, 90, 120]     36864      False     \n______________________________________________________________________\nBatchNorm2d          [8, 64, 90, 120]     128        True      \n______________________________________________________________________\nReLU                 [8, 64, 90, 120]     0          False     \n______________________________________________________________________\nConv2d               [8, 64, 90, 120]     36864      False     \n______________________________________________________________________\nBatchNorm2d          [8, 64, 90, 120]     128        True      \n______________________________________________________________________\nConv2d               [8, 64, 90, 120]     36864      False     \n______________________________________________________________________\nBatchNorm2d          [8, 64, 90, 120]     128        True      \n______________________________________________________________________\nReLU                 [8, 64, 90, 120]     0          False     \n______________________________________________________________________\nConv2d               [8, 64, 90, 120]     36864      False     \n______________________________________________________________________\nBatchNorm2d          [8, 64, 90, 120]     128        True      \n______________________________________________________________________\nConv2d               [8, 128, 45, 60]     73728      False     \n______________________________________________________________________\nBatchNorm2d          [8, 128, 45, 60]     256        True      \n______________________________________________________________________\nReLU                 [8, 128, 45, 60]     0          False     \n______________________________________________________________________\nConv2d               [8, 128, 45, 60]     147456     False     \n______________________________________________________________________\nBatchNorm2d          [8, 128, 45, 60]     256        True      \n______________________________________________________________________\nConv2d               [8, 128, 45, 60]     8192       False     \n______________________________________________________________________\nBatchNorm2d          [8, 128, 45, 60]     256        True      \n______________________________________________________________________\nConv2d               [8, 128, 45, 60]     147456     False     \n______________________________________________________________________\nBatchNorm2d          [8, 128, 45, 60]     256        True      \n______________________________________________________________________\nReLU                 [8, 128, 45, 60]     0          False     \n______________________________________________________________________\nConv2d               [8, 128, 45, 60]     147456     False     \n______________________________________________________________________\nBatchNorm2d          [8, 128, 45, 60]     256        True      \n______________________________________________________________________\nConv2d               [8, 128, 45, 60]     147456     False     \n______________________________________________________________________\nBatchNorm2d          [8, 128, 45, 60]     256        True      \n______________________________________________________________________\nReLU                 [8, 128, 45, 60]     0          False     \n______________________________________________________________________\nConv2d               [8, 128, 45, 60]     147456     False     \n______________________________________________________________________\nBatchNorm2d          [8, 128, 45, 60]     256        True      \n______________________________________________________________________\nConv2d               [8, 128, 45, 60]     147456     False     \n______________________________________________________________________\nBatchNorm2d          [8, 128, 45, 60]     256        True      \n______________________________________________________________________\nReLU                 [8, 128, 45, 60]     0          False     \n______________________________________________________________________\nConv2d               [8, 128, 45, 60]     147456     False     \n______________________________________________________________________\nBatchNorm2d          [8, 128, 45, 60]     256        True      \n______________________________________________________________________\nConv2d               [8, 256, 23, 30]     294912     False     \n______________________________________________________________________\nBatchNorm2d          [8, 256, 23, 30]     512        True      \n______________________________________________________________________\nReLU                 [8, 256, 23, 30]     0          False     \n______________________________________________________________________\nConv2d               [8, 256, 23, 30]     589824     False     \n______________________________________________________________________\nBatchNorm2d          [8, 256, 23, 30]     512        True      \n______________________________________________________________________\nConv2d               [8, 256, 23, 30]     32768      False     \n______________________________________________________________________\nBatchNorm2d          [8, 256, 23, 30]     512        True      \n______________________________________________________________________\nConv2d               [8, 256, 23, 30]     589824     False     \n______________________________________________________________________\nBatchNorm2d          [8, 256, 23, 30]     512        True      \n______________________________________________________________________\nReLU                 [8, 256, 23, 30]     0          False     \n______________________________________________________________________\nConv2d               [8, 256, 23, 30]     589824     False     \n______________________________________________________________________\nBatchNorm2d          [8, 256, 23, 30]     512        True      \n______________________________________________________________________\nConv2d               [8, 256, 23, 30]     589824     False     \n______________________________________________________________________\nBatchNorm2d          [8, 256, 23, 30]     512        True      \n______________________________________________________________________\nReLU                 [8, 256, 23, 30]     0          False     \n______________________________________________________________________\nConv2d               [8, 256, 23, 30]     589824     False     \n______________________________________________________________________\nBatchNorm2d          [8, 256, 23, 30]     512        True      \n______________________________________________________________________\nConv2d               [8, 256, 23, 30]     589824     False     \n______________________________________________________________________\nBatchNorm2d          [8, 256, 23, 30]     512        True      \n______________________________________________________________________\nReLU                 [8, 256, 23, 30]     0          False     \n______________________________________________________________________\nConv2d               [8, 256, 23, 30]     589824     False     \n______________________________________________________________________\nBatchNorm2d          [8, 256, 23, 30]     512        True      \n______________________________________________________________________\nConv2d               [8, 256, 23, 30]     589824     False     \n______________________________________________________________________\nBatchNorm2d          [8, 256, 23, 30]     512        True      \n______________________________________________________________________\nReLU                 [8, 256, 23, 30]     0          False     \n______________________________________________________________________\nConv2d               [8, 256, 23, 30]     589824     False     \n______________________________________________________________________\nBatchNorm2d          [8, 256, 23, 30]     512        True      \n______________________________________________________________________\nConv2d               [8, 256, 23, 30]     589824     False     \n______________________________________________________________________\nBatchNorm2d          [8, 256, 23, 30]     512        True      \n______________________________________________________________________\nReLU                 [8, 256, 23, 30]     0          False     \n______________________________________________________________________\nConv2d               [8, 256, 23, 30]     589824     False     \n______________________________________________________________________\nBatchNorm2d          [8, 256, 23, 30]     512        True      \n______________________________________________________________________\nConv2d               [8, 512, 12, 15]     1179648    False     \n______________________________________________________________________\nBatchNorm2d          [8, 512, 12, 15]     1024       True      \n______________________________________________________________________\nReLU                 [8, 512, 12, 15]     0          False     \n______________________________________________________________________\nConv2d               [8, 512, 12, 15]     2359296    False     \n______________________________________________________________________\nBatchNorm2d          [8, 512, 12, 15]     1024       True      \n______________________________________________________________________\nConv2d               [8, 512, 12, 15]     131072     False     \n______________________________________________________________________\nBatchNorm2d          [8, 512, 12, 15]     1024       True      \n______________________________________________________________________\nConv2d               [8, 512, 12, 15]     2359296    False     \n______________________________________________________________________\nBatchNorm2d          [8, 512, 12, 15]     1024       True      \n______________________________________________________________________\nReLU                 [8, 512, 12, 15]     0          False     \n______________________________________________________________________\nConv2d               [8, 512, 12, 15]     2359296    False     \n______________________________________________________________________\nBatchNorm2d          [8, 512, 12, 15]     1024       True      \n______________________________________________________________________\nConv2d               [8, 512, 12, 15]     2359296    False     \n______________________________________________________________________\nBatchNorm2d          [8, 512, 12, 15]     1024       True      \n______________________________________________________________________\nReLU                 [8, 512, 12, 15]     0          False     \n______________________________________________________________________\nConv2d               [8, 512, 12, 15]     2359296    False     \n______________________________________________________________________\nBatchNorm2d          [8, 512, 12, 15]     1024       True      \n______________________________________________________________________\nBatchNorm2d          [8, 512, 12, 15]     1024       True      \n______________________________________________________________________\nReLU                 [8, 512, 12, 15]     0          False     \n______________________________________________________________________\nConv2d               [8, 1024, 12, 15]    4719616    True      \n______________________________________________________________________\nReLU                 [8, 1024, 12, 15]    0          False     \n______________________________________________________________________\nConv2d               [8, 512, 12, 15]     4719104    True      \n______________________________________________________________________\nReLU                 [8, 512, 12, 15]     0          False     \n______________________________________________________________________\nConv2d               [8, 1024, 12, 15]    525312     True      \n______________________________________________________________________\nPixelShuffle         [8, 256, 24, 30]     0          False     \n______________________________________________________________________\nReplicationPad2d     [8, 256, 25, 31]     0          False     \n______________________________________________________________________\nAvgPool2d            [8, 256, 24, 30]     0          False     \n______________________________________________________________________\nReLU                 [8, 1024, 12, 15]    0          False     \n______________________________________________________________________\nBatchNorm2d          [8, 256, 23, 30]     512        True      \n______________________________________________________________________\nConv2d               [8, 512, 23, 30]     2359808    True      \n______________________________________________________________________\nReLU                 [8, 512, 23, 30]     0          False     \n______________________________________________________________________\nConv2d               [8, 512, 23, 30]     2359808    True      \n______________________________________________________________________\nReLU                 [8, 512, 23, 30]     0          False     \n______________________________________________________________________\nReLU                 [8, 512, 23, 30]     0          False     \n______________________________________________________________________\nConv2d               [8, 1024, 23, 30]    525312     True      \n______________________________________________________________________\nPixelShuffle         [8, 256, 46, 60]     0          False     \n______________________________________________________________________\nReplicationPad2d     [8, 256, 47, 61]     0          False     \n______________________________________________________________________\nAvgPool2d            [8, 256, 46, 60]     0          False     \n______________________________________________________________________\nReLU                 [8, 1024, 23, 30]    0          False     \n______________________________________________________________________\nBatchNorm2d          [8, 128, 45, 60]     256        True      \n______________________________________________________________________\nConv2d               [8, 384, 45, 60]     1327488    True      \n______________________________________________________________________\nReLU                 [8, 384, 45, 60]     0          False     \n______________________________________________________________________\nConv2d               [8, 384, 45, 60]     1327488    True      \n______________________________________________________________________\nReLU                 [8, 384, 45, 60]     0          False     \n______________________________________________________________________\nReLU                 [8, 384, 45, 60]     0          False     \n______________________________________________________________________\nConv2d               [8, 768, 45, 60]     295680     True      \n______________________________________________________________________\nPixelShuffle         [8, 192, 90, 120]    0          False     \n______________________________________________________________________\nReplicationPad2d     [8, 192, 91, 121]    0          False     \n______________________________________________________________________\nAvgPool2d            [8, 192, 90, 120]    0          False     \n______________________________________________________________________\nReLU                 [8, 768, 45, 60]     0          False     \n______________________________________________________________________\nBatchNorm2d          [8, 64, 90, 120]     128        True      \n______________________________________________________________________\nConv2d               [8, 256, 90, 120]    590080     True      \n______________________________________________________________________\nReLU                 [8, 256, 90, 120]    0          False     \n______________________________________________________________________\nConv2d               [8, 256, 90, 120]    590080     True      \n______________________________________________________________________\nReLU                 [8, 256, 90, 120]    0          False     \n______________________________________________________________________\nReLU                 [8, 256, 90, 120]    0          False     \n______________________________________________________________________\nConv2d               [8, 512, 90, 120]    131584     True      \n______________________________________________________________________\nPixelShuffle         [8, 128, 180, 240]   0          False     \n______________________________________________________________________\nReplicationPad2d     [8, 128, 181, 241]   0          False     \n______________________________________________________________________\nAvgPool2d            [8, 128, 180, 240]   0          False     \n______________________________________________________________________\nReLU                 [8, 512, 90, 120]    0          False     \n______________________________________________________________________\nBatchNorm2d          [8, 64, 180, 240]    128        True      \n______________________________________________________________________\nConv2d               [8, 96, 180, 240]    165984     True      \n______________________________________________________________________\nReLU                 [8, 96, 180, 240]    0          False     \n______________________________________________________________________\nConv2d               [8, 96, 180, 240]    83040      True      \n______________________________________________________________________\nReLU                 [8, 96, 180, 240]    0          False     \n______________________________________________________________________\nReLU                 [8, 192, 180, 240]   0          False     \n______________________________________________________________________\nConv2d               [8, 384, 180, 240]   37248      True      \n______________________________________________________________________\nPixelShuffle         [8, 96, 360, 480]    0          False     \n______________________________________________________________________\nReplicationPad2d     [8, 96, 361, 481]    0          False     \n______________________________________________________________________\nAvgPool2d            [8, 96, 360, 480]    0          False     \n______________________________________________________________________\nReLU                 [8, 384, 180, 240]   0          False     \n______________________________________________________________________\nMergeLayer           [8, 99, 360, 480]    0          False     \n______________________________________________________________________\nConv2d               [8, 49, 360, 480]    43708      True      \n______________________________________________________________________\nReLU                 [8, 49, 360, 480]    0          False     \n______________________________________________________________________\nConv2d               [8, 99, 360, 480]    43758      True      \n______________________________________________________________________\nReLU                 [8, 99, 360, 480]    0          False     \n______________________________________________________________________\nMergeLayer           [8, 99, 360, 480]    0          False     \n______________________________________________________________________\nConv2d               [8, 12, 360, 480]    1200       True      \n______________________________________________________________________\n\nTotal params:  41133018\nTotal trainable params:  19865370\nTotal non-trainable params:  21267648\n```\n\nEventually, you've got down to a point where, if you use U-Net architecture, it's 28 by 28 with 1,024 channels. With the ResNet architecture with a 224 pixel input, it would be 512 channels by 7 by 7. 
…
