…
\",\n            \"Dataset not found ⚠️, missing paths ['/content/datasets/coco128/images/train2017']\\n\",\n            \"Downloading https://github.com/ultralytics/assets/releases/download/v0.0.0/coco128.zip to coco128.zip...\\n\",\n            \"100% 6.66M/6.66M [00:00<00:00, 75.6MB/s]\\n\",\n            \"Dataset download success ✅ (0.6s), saved to \\u001b[1m/content/datasets\\u001b[0m\\n\",\n            \"\\n\",\n            \"                 from  n    params  module                                  arguments                     \\n\",\n            \"  0                -1  1      3520  models.common.Conv                      [3, 32, 6, 2, 2]              \\n\",\n            \"  1                -1  1     18560  models.common.Conv                      [32, 64, 3, 2]                \\n\",\n            \"  2                -1  1     18816  models.common.C3                        [64, 64, 1]                   \\n\",\n            \"  3                -1  1     73984  models.common.Conv                      [64, 128, 3, 2]               \\n\",\n            \"  4                -1  2    115712  models.common.C3                        [128, 128, 2]                 \\n\",\n            \"  5                -1  1    295424  models.common.Conv                      [128, 256, 3, 2]              \\n\",\n            \"  6                -1  3    625152  models.common.C3                        [256, 256, 3]                 \\n\",\n            \"  7                -1  1   1180672  models.common.Conv                      [256, 512, 3, 2]              \\n\",\n            \"  8                -1  1   1182720  models.common.C3                        [512, 512, 1]                 \\n\",\n            \"  9                -1  1    656896  models.common.SPPF                      [512, 512, 5]                 \\n\",\n            \" 10                -1  1    131584  models.common.Conv                      [512, 256, 1, 1]              \\n\",\n            \" 11                -1  1         0  torch.nn.modules.upsampling.Upsample    [None, 2, 'nearest']          \\n\",\n            \" 12           [-1, 6]  1         0  models.common.Concat                    [1]                           \\n\",\n            \" 13                -1  1    361984  models.common.C3                        [512, 256, 1, False]          \\n\",\n            \" 14                -1  1     33024  models.common.Conv                      [256, 128, 1, 1]              \\n\",\n            \" 15                -1  1         0  torch.nn.modules.upsampling.Upsample    [None, 2, 'nearest']          \\n\",\n            \" 16           [-1, 4]  1         0  models.common.Concat                    [1]                           \\n\",\n            \" 17                -1  1     90880  models.common.C3                        [256, 128, 1, False]          \\n\",\n            \" 18                -1  1    147712  models.common.Conv                      [128, 128, 3, 2]              \\n\",\n            \" 19          [-1, 14]  1         0  models.common.Concat                    [1]                           \\n\",\n            \" 20                -1  1    296448  models.common.C3                        [256, 256, 1, False]          \\n\",\n            \" 21                -1  1    590336  models.common.Conv                      [256, 256, 3, 2]              \\n\",\n            \" 22          [-1, 10]  1         0  models.common.Concat                    [1]                           \\n\",\n            \" 23                -1  1   1182720  models.common.C3                        [512, 512, 1, False]          \\n\",\n            \" 24      [17, 20, 23]  1    229245  models.yolo.Detect                      [80, [[10, 13, 16, 30, 33, 23], [30, 61, 62, 45, 59, 119], [116, 90, 156, 198, 373, 326]], [128, 256, 512]]\\n\",\n            \"Model summary: 214 layers, 7235389 parameters, 7235389 gradients, 16.6 GFLOPs\\n\",\n            \"\\n\",\n            \"Transferred 349/349 ite
…
