…
1)(x)\nx = layers.Flatten()(x)\nx = layers.Dense(32,activation='relu')(x)\noutputs = layers.Dense(1,activation = 'sigmoid')(x)\n\nmodel = models.Model(inputs = inputs,outputs = outputs)\n\nmodel.summary()\n```\n\n```\nModel: \"model\"\n_________________________________________________________________\nLayer (type)                 Output Shape              Param #   \n=================================================================\ninput_1 (InputLayer)         [(None, 32, 32, 3)]       0         \n_________________________________________________________________\nconv2d (Conv2D)              (None, 30, 30, 32)        896       \n_________________________________________________________________\nmax_pooling2d (MaxPooling2D) (None, 15, 15, 32)        0         \n_________________________________________________________________\nconv2d_1 (Conv2D)            (None, 11, 11, 64)        51264     \n_________________________________________________________________\nmax_pooling2d_1 (MaxPooling2 (None, 5, 5, 64)          0         \n_________________________________________________________________\ndropout (Dropout)            (None, 5, 5, 64)          0         \n_________________________________________________________________\nflatten (Flatten)            (None, 1600)              0         \n_________________________________________________________________\ndense (Dense)                (None, 32)                51232     \n_________________________________________________________________\ndense_1 (Dense)              (None, 1)                 33        \n=================================================================\nTotal params: 103,425\nTrainable params: 103,425\nNon-trainable params: 0\n_________________________________________________________________\n```\n\n```python\n\n```\n\n### 三，训练模型\n\n\n训练模型通常有3种方法，内置fit方法，内置train_on_batch方法，以及自定义训练循环。此处我们选择最常用也最简单的内置fit方法。\n\n```python\nimport datetime\nimport os\n\nstamp = datetime.datet
…
nput)\n        model = tf.keras.Model(inputs = x_input,outputs = output)\n        model.summary()\n    \nmodel = CnnModel()\nmodel.build(input_shape =(None,MAX_LEN))\nmodel.summary()\n\n```\n\n```python\n\n```\n\n```\nModel: \"model\"\n_________________________________________________________________\nLayer (type)                 Output Shape              Param #   \n=================================================================\ninput_1 (InputLayer)         [(None, 200)]             0         \n_________________________________________________________________\nembedding (Embedding)        (None, 200, 7)            70000     \n_________________________________________________________________\nconv_1 (Conv1D)              (None, 196, 16)           576       \n_________________________________________________________________\npool_1 (MaxPooling1D)        (None, 98, 16)            0         \n_________________________________________________________________\nconv_2 (Conv1D)              (None, 97, 128)           4224      \n_________________________________________________________________\npool_2 (MaxPooling1D)        (None, 48, 128)           0         \n_________________________________________________________________\nflatten (Flatten)            (None, 6144)              0         \n_________________________________________________________________\ndense (Dense)                (None, 1)                 6145      \n=================================================================\nTotal params: 80,945\nTrainable params: 80,945\nNon-trainable params: 0\n_________________________________________________________________\n```\n\n```python\n\n```\n\n### 三，训练模型\n\n\n训练模型通常有3种方法，内置fit方法，内置train_on_batch方法，以及自定义训练循环。此处我们通过自定义训练循环训练模型。\n\n```python\n#打印时间分割线\n@tf.function\ndef printbar():\n    today_ts = tf.t
…
racy',\"AUC\"])\n\nmodel.summary()\n\n```\n\n```\nModel: \"model\"\n__________________________________________________________________________________________________\nLayer (type)                    Output Shape         Param #     Connected to                     \n==================================================================================================\ninput_1 (InputLayer)            [(None, 200)]        0                                            \n__________________________________________________________________________________________________\nembedding (Embedding)           (None, 200, 7)       70000       input_1[0][0]                    \n__________________________________________________________________________________________________\nseparable_conv1d (SeparableConv (None, 198, 64)      533         embedding[0][0]                  \n__________________________________________________________________________________________________\nseparable_conv1d_2 (SeparableCo (None, 196, 64)      547         embedding[0][0]                  \n__________________________________________________________________________________________________\nseparable_conv1d_4 (SeparableCo (None, 194, 64)      561         embedding[0][0]                  \n__________________________________________________________________________________________________\nmax_pooling1d (MaxPooling1D)    (None, 66, 64)       0           separable_conv1d[0][0]           \n__________________________________________________________________________________________________\nmax_pooling1d_1 (MaxPooling1D)  (None, 39, 64)       0           separable_conv1d_2[0][0]         \n__________________________________________________________________________________________________\nmax_pooling1d_2 (MaxPooling1D)  (None, 27, 64)       0           separable_conv1d_4[0][0]         \n__________________________________________________________________________________________________\nseparable_conv1d_1 (SeparableCo (None, 64, 32)       2272        max_pooling1d[0][0]              \n__________________________________________________________________________________________________\nseparable_conv1d_3 (SeparableCo (None, 35, 32)       2400        max_pooling1d_1[0][0]            \n__________________________________________________________________________________________________\nseparable_conv1d_5 (SeparableCo (None, 21, 32)       2528        max_pooling1d_2[0][0]            \n__________________________________________________________________________________________________\nglobal_max_pooling1d (GlobalMax (None, 32)           0           separable_conv1d_1[0][0]         \n__________________________________________________________________________________________________\nglobal_max_pooling1d_1 (GlobalM (None, 32)           0           separable_conv1d_3[0][0]         \n__________________________________________________________________________________________________\nglobal_max_pooling1d_2 (GlobalM (None, 32)           0           separable_conv1d_5[0][0]         \n__________________________________________________________________________________________________\nconcatenate (Concatenate)       (None, 96)           0           global_max_pooling1d[0][0]       \n                                                                 global_max_pooling1d_1[0][0]     \n                                                                 global_max_pooling1d_2[0][0]     \n__________________________________________________________________________________________________\ndense (Dense)                   (None, 1)            97          concatenate[0][0]                \n==================================================================================================\nTotal params: 78,938\nTrainable params: 78,938\nNon-trainable params: 0\n__________________________________________________________________________________________________\n```\n\n\n![](./data/FunctionalAPI模型结构.png)\n\n```python\nimport datetime\nlogdir =
…
compile_model(model):\n    model.compile(optimizer=optimizers.Nadam(),\n                loss=losses.SparseCategoricalCrossentropy(),\n                metrics=[metrics.SparseCategoricalAccuracy(),metrics.SparseTopKCategoricalAccuracy(5)]) \n    return(model)\n \nmodel = create_model()\nmodel.summary()\nmodel = compile_model(model)\n\n```\n\n```\nModel: \"sequential\"\n_________________________________________________________________\nLayer (type)                 Output Shape              Param #   \n=================================================================\nembedding (Embedding)        (None, 300, 7)            216874    \n_________________________________________________________________\nconv1d (Conv1D)              (None, 296, 64)           2304      \n_________________________________________________________________\nmax_pooling1d (MaxPooling1D) (None, 148, 64)           0         \n_________________________________________________________________\nconv1d_1 (Conv1D)            (None, 146, 32)           6176      \n_________________________________________________________________\nmax_pooling1d_1 (MaxPooling1 (None, 73, 32)            0         \n_________________________________________________________________\nflatten (Flatten)            (None, 2336)              0         \n_________________________________________________________________\ndense (Dense)                (None, 46)                107502    \n=================================================================\nTotal params: 332,856\nTrainable params: 332,856\nNon-trainable params: 0\n_________________________________________________________________\n```\n\n```python\nhistory = model.fit(ds_train,validation_data = ds_test,epochs = 10)\n```\n\n```python\n\n```\n\n```\nTrain for 281 steps, validate for 71 steps\nEpoch 1/10\n281/281 [=
…
