…
nv2_drop(self.conv2(x)), 2))\n        x = x.view(-1, 320)\n        x = F.relu(self.fc1(x))\n        x = F.dropout(x, training=self.training)\n        x = self.fc2(x)\n        return F.log_softmax(x, dim=1)\n\ndevice = torch.device(\"cuda\" if torch.cuda.is_available() else \"cpu\") # PyTorch v0.4.0\nmodel = Net().to(device)\n\nsummary(model, (1, 28, 28))\n```\n\n\n```\n----------------------------------------------------------------\n        Layer (type)               Output Shape         Param #\n================================================================\n            Conv2d-1           [-1, 10, 24, 24]             260\n            Conv2d-2             [-1, 20, 8, 8]           5,020\n         Dropout2d-3             [-1, 20, 8, 8]               0\n            Linear-4                   [-1, 50]          16,050\n            Linear-5                   [-1, 10]             510\n================================================================\nTotal params: 21,840\nTrainable params: 21,840\nNon-trainable params: 0\n----------------------------------------------------------------\nInput size (MB): 0.00\nForward/backward pass size (MB): 0.06\nParams size (MB): 0.08\nEstimated Total Size (MB): 0.15\n----------------------------------------------------------------\n```\n\n\n#### VGG16\n\n\n```python\nimport torch\nfrom torchvision import models\nfrom torchsummary import summary\n\ndevice = torch.device('cuda' if torch.cuda.is_available() else 'cpu')\nvgg = models.vgg16().to(device)\n\nsummary(vgg, (3, 224, 224))\n```\n\n\n```\n----------------------------------------------------------------\n        Layer (type)               Output Shape         Param #\n================================================================\n            Conv2d-1         [-1, 64, 224, 224]           1,792\n              ReLU-2         [-1, 64, 224, 224]               0\n            Conv2d-3         [-1, 64, 224, 224]          36,928\n              ReLU-4         [-1, 64, 224, 224]               0\n         MaxPool2d-5         [-1, 64, 112, 112]               0\n            Conv2d-6        [-1, 128, 112, 112]          73,856\n              ReLU-7        [-1, 128, 112, 112]               0\n            Conv2d-8        [-1, 128, 112, 112]         147,584\n              ReLU-9        [-1, 128, 112, 112]               0\n        MaxPool2d-10          [-1, 128, 56, 56]               0\n           Conv2d-11          [-1, 256, 56, 56]         295,168\n             ReLU-12          [-1, 256, 56, 56]               0\n           Conv2d-13          [-1, 256, 56, 56]         590,080\n             ReLU-14          [-1, 256, 56, 56]               0\n           Conv2d-15          [-1, 256, 56, 56]         590,080\n             ReLU-16          [-1, 256, 56, 56]               0\n        MaxPool2d-17          [-1, 256, 28, 28]               0\n           Conv2d-18          [-1, 512, 28, 28]       1,180,160\n             ReLU-19          [-1, 512, 28, 28]               0\n           Conv2d-20          [-1, 512, 28, 28]       2,359,808\n             ReLU-21          [-1, 512, 28, 28]               0\n           Conv2d-22          [-1, 512, 28, 28]       2,359,808\n             ReLU-23          [-1, 512, 28, 28]               0\n        MaxPool2d-24          [-1, 512, 14, 14]               0\n           Conv2d-25          [-1, 512, 14, 14]       2,359,808\n             ReLU-26          [-1, 512, 14, 14]               0\n           Conv2d-27          [-1, 512, 14, 14]       2,359,808\n             ReLU-28          [-1, 512, 14, 14]               0\n           Conv2d-29          [-1, 512, 14, 14]       2,359,808\n             ReLU-30          [-1, 512, 14, 14]               0\n        MaxPool2d-31            [-1, 512, 7, 7]               0\n           Linear-32                 [-1, 4096]     102,764,544\n             ReLU-33                 [-1, 4096]               0\n          Dropout-34                 [-1, 4096]               0\n           Linear-35                 [-1, 4096]      16,781,312\n             ReLU-36                 [-1, 4096]               0\n          Dropout-37                 [-1, 4096]               0\n           Linear-38                 [-1, 1000]       4,097,000\n================================================================\nTotal params: 138,357,544\nTrainable params: 138,357,544\nNon-trainable params: 0\n----------------------------------------------------------------\nInput size (MB): 0.57\nForward/backward pass size (MB): 218.59\nParams size (MB): 527.79\nEstimated Total Size (MB): 746.96\n----------------------------------------------------------
…
